…
Filtering empty sequences (num_proc=72):   0%|          | 0/16384 [00:00<?, ? examples/s]Filtering empty sequences (num_proc=72):  14%|#3        | 2280/16384 [00:00<00:00, 22761.49 examples/s]Filtering empty sequences (num_proc=72):  47%|####7     | 7751/16384 [00:00<00:00, 41536.14 examples/s]Filtering empty sequences (num_proc=72): 100%|##########| 16384/16384 [00:00<00:00, 35120.29 examples/s]
  Records after filtering: 16,384
  Empty sequences filtered: 0
Sampling 16384 records...
Extracting records...
  Unique species: 1
Loading AutoModelForMaskedLM from InstaDeepAI/nucleotide-transformer-v2-50m-multi-species revision=81b29e5786726d891dbf929404ef20adca5b36f1 with dtype=torch.float32...
  Hidden size: 512
  Parameters: 55,904,972 (55.9M)
  Device: cuda, Dtype: torch.float32
  Model:
EsmForMaskedLM(
  (esm): EsmModel(
    (embeddings): EsmEmbeddings(
      (word_embeddings): Embedding(4107, 512, padding_idx=1)
      (dropout): Dropout(p=0.0, inplace=False)
      (position_embeddings): Embedding(2050, 512, padding_idx=1)
    )
    (encoder): EsmEncoder(
      (layer): ModuleList(
        (0-11): 12 x EsmLayer(
          (attention): EsmAttention(
            (self): EsmSelfAttention(
              (query): Linear(in_features=512, out_features=512, bias=True)
              (key): Linear(in_features=512, out_features=512, bias=True)
              (value): Linear(in_features=512, out_features=512, bias=True)
              (dropout): Dropout(p=0.0, inplace=False)
              (rotary_embeddings): RotaryEmbedding()
            )
            (output): EsmSelfOutput(
              (dense): Linear(in_features=512, out_features=512, bias=True)
              (dropout): Dropout(p=0.0, inplace=False)
            )
            (LayerNorm): LayerNorm((512,), eps=1e-12, elementwise_affine=True)
          )
          (intermediate): EsmIntermediate(
            (dense): Linear(in_features=512, out_features=4096, bias=False)
            (activation_fn): SiLU()
          )
          (output): EsmOutput(
            (dense): Linear(in_features=2048, out_features=512, bias=False)
            (dropout): Dropout(p=0.0, inplace=False)
          )
          (LayerNorm): LayerNorm((512,), eps=1e-12, elementwise_affine=True)
        )
      )
      (emb_layer_norm_after): LayerNorm((512,), eps=1e-12, elementwise_affine=True)
    )
    (contact_head): EsmContactPredictionHead(
      (regression): Linear(in_features=192, out_features=1, bias=True)
      (activation): Sigmoid()
    )
  )
  (lm_head): EsmLMHead(
    (dense): Linear(in_features=512, out_features=512, bias=True)
    (layer_norm): LayerNorm((512,), eps=1e-12, elementwise_affine=True)
    (decoder): Linear(in_features=512, out_features=4107, bias=False)
  )
)
Extracting embeddings:   0%|          | 0/1024 [00:00<?, ?it/s]Extracting embeddings:   0%|          | 1/1024 [00:00<05:57,  2.86it/s]Extracting embeddings:   0%|          | 2/1024 [00:00<05:04,  3.35it/s]Extracting embeddings:   0%|          | 3/1024 [00:00<04:46,  3.56it/s]Extracting embeddings:   0%|          | 4/1024 [00:01<04:38,  3.6
…
