…
Preparing sequences (cropping to 512 bp and filtering empty)...
  Records before filtering: 2,004,166
  Records after filtering: 2,004,166
  Empty sequences filtered: 0
Sampling 262144 records...
Extracting records...
  Unique species: 65
Loading AutoModelForCausalLM from LongSafari/hyenadna-tiny-1k-seqlen-hf revision=e8c1effa8673814e257e627d2e1eda9ea5a373f6 with dtype=torch.float32...
  Hidden size: 128
  Parameters: 438,144 (0.4M)
  Device: cuda, Dtype: torch.float32
  Model:
HyenaDNAForCausalLM(
  (hyena): HyenaDNAModel(
    (backbone): HyenaLMBackbone(
      (embeddings): HyenaEmbeddings(
        (word_embeddings): Embedding(16, 128)
      )
      (dropout): Dropout(p=0.1, inplace=False)
      (layers): ModuleList(
        (0-1): 2 x HyenaBlock(
          (mixer): HyenaOperator(
            (dropout): Dropout(p=0.0, inplace=False)
            (in_proj): Linear(in_features=128, out_features=384, bias=True)
            (out_proj): Linear(in_features=128, out_features=128, bias=True)
            (short_filter): Conv1d(384, 384, kernel_size=(3,), stride=(1,), padding=(2,), groups=384)
            (filter_fn): HyenaFilter(
              (dropout): Dropout(p=0.0, inplace=False)
              (pos_emb): HyenaPositionalEmbedding()
              (implicit_filter): Sequential(
                (0): Linear(in_features=5, out_features=64, bias=True)
                (1): HyenaSin()
                (2): Linear(in_features=64, out_features=64, bias=True)
                (3): HyenaSin()
                (4): Linear(in_features=64, out_features=64, bias=True)
                (5): HyenaSin()
                (6): Linear(in_features=64, out_features=128, bias=False)
              )
              (modulation): HyenaExponentialModulation()
            )
          )
          (norm1): LayerNorm((128,), eps=1e-05, elementwise_affine=True)
          (mlp): HyenaMlp(
            (fc1): Linear(in_features=128, out_features=512, bias=True)
            (fc2): Linear(in_features=512, out_features=128, bias=True)
          )
          (norm2): LayerNorm((128,), eps=1e-05, elementwise_affine=True)
        )
      )
      (ln_f): LayerNorm((128,), eps=1e-05, elementwise_affine=True)
    )
  )
  (lm_head): Linear(in_features=128, out_features=16, bias=False)
)
Extracting embeddings:   0%|          | 0/1024 [00:00<?, ?it/s]Extracting embeddings:   0%|          | 1/1024 [00:00<02:56,  5.78it/s]Extracting embeddings:   0%|          | 3/1024 [00:00<01:42, 10.01it/s]Extracting embeddings:   0%|          | 5/1024 [00:00<01:28, 11.55it/s]Extracting embeddings:   1%|          | 7/1024 [00:00<01:22, 12.34it/s]
…
