…
tering empty sequences (num_proc=72): 100%|##########| 2004166/2004166 [00:00<00:00, 3902896.30 examples/s]
  Records after filtering: 2,004,166
  Empty sequences filtered: 0
Sampling 16384 records...
Extracting records...
  Unique species: 65
Loading AutoModelForMaskedLM from InstaDeepAI/nucleotide-transformer-v2-50m-multi-species revision=81b29e5786726d891dbf929404ef20adca5b36f1 with dtype=torch.float32...
  Hidden size: 512
  Parameters: 55,904,972 (55.9M)
  Device: cuda, Dtype: torch.float32
  Model:
EsmForMaskedLM(
  (esm): EsmModel(
    (embeddings): EsmEmbeddings(
      (word_embeddings): Embedding(4107, 512, padding_idx=1)
      (dropout): Dropout(p=0.0, inplace=False)
      (position_embeddings): Embedding(2050, 512, padding_idx=1)
    )
    (encoder): EsmEncoder(
      (layer): ModuleList(
        (0-11): 12 x EsmLayer(
          (attention): EsmAttention(
            (self): EsmSelfAttention(
              (query): Linear(in_features=512, out_features=512, bias=True)
              (key): Linear(in_features=512, out_features=512, bias=True)
              (value): Linear(in_features=512, out_features=512, bias=True)
              (dropout): Dropout(p=0.0, inplace=False)
              (rotary_embeddings): RotaryEmbedding()
            )
            (output): EsmSelfOutput(
              (dense): Linear(in_features=512, out_features=512, bias=True)
              (dropout): Dropout(p=0.0, inplace=False)
            )
            (LayerNorm): LayerNorm((512,), eps=1e-12, elementwise_affine=True)
          )
          (intermediate): EsmIntermediate(
            (dense): Linear(in_features=512, out_features=4096, bias=False)
            (activation_fn): SiLU()
          )
          (output): EsmOutput(
            (dense): Linear(in_features=2048, out_features=512, bias=False)
            (dropout): Dropout(p=0.0, inplace=False)
          )
          (LayerNorm): LayerNorm((512,), eps=1e-12, elementwise_affine=True)
        )
      )
      (emb_layer_norm_after): LayerNorm((512,), eps=1e-12, elementwise_affine=True)
    )
    (contact_head): EsmContactPredictionHead(
      (regression): Linear(in_features=192, out_features=1, bias=True)
      (activation): Sigmoid()
    )
  )
  (lm_head): EsmLMHead(
    (dense): Linear(in_features=512, out_features=512, bias=True)
    (layer_norm): LayerNorm((512,), eps=1e-12, elementwise_affine=True)
    (decoder): Linear(in_features=512, out_features=4107, bias=False)
  )
)
Extracting embeddings:   0%|          | 0/256 [00:00<?, ?it/s]Extracting embeddings:   0%|          | 1/256 [00:00<00:32,  7.81it/s]Extracting embeddings:   2%|1         | 4/256 [00:00<00:14, 17.87it/s]Extracting embeddings:   3%|2         | 7/256 [00:00<00:11, 21.50it/s]Extracting embeddings:   4%|3         | 10/256 [00:00<00:10, 23.29it/
…
