…
Dataset size: 2,638,656 records

Preparing sequences (cropping to 6144 bp and filtering empty)...
  Records before filtering: 2,638,656
  Records after filtering: 2,638,656
  Empty sequences filtered: 0
Sampling 16384 records...
Extracting records...
  Unique species: 65
Loading AutoModelForMaskedLM from InstaDeepAI/agro-nucleotide-transformer-1b revision=b0e1ea1f53a2bf5bb29f8eab7a7e553bf06c1ab1 with dtype=torch.float32...
  Hidden size: 1500
  Parameters: 991,261,206 (991.3M)
  Device: cuda, Dtype: torch.float32
  Model:
EsmForMaskedLM(
  (esm): EsmModel(
    (embeddings): EsmEmbeddings(
      (word_embeddings): Embedding(4105, 1500, padding_idx=1)
      (dropout): Dropout(p=0.0, inplace=False)
      (position_embeddings): Embedding(1026, 1500, padding_idx=1)
    )
    (encoder): EsmEncoder(
      (layer): ModuleList(
        (0-39): 40 x EsmLayer(
          (attention): EsmAttention(
            (self): EsmSelfAttention(
              (query): Linear(in_features=1500, out_features=1500, bias=True)
              (key): Linear(in_features=1500, out_features=1500, bias=True)
              (value): Linear(in_features=1500, out_features=1500, bias=True)
              (dropout): Dropout(p=0.0, inplace=False)
            )
            (output): EsmSelfOutput(
              (dense): Linear(in_features=1500, out_features=1500, bias=True)
              (dropout): Dropout(p=0.0, inplace=False)
            )
            (LayerNorm): LayerNorm((1500,), eps=1e-12, elementwise_affine=True)
          )
          (intermediate): EsmIntermediate(
            (dense): Linear(in_features=1500, out_features=5120, bias=True)
          )
          (output): EsmOutput(
            (dense): Linear(in_features=5120, out_features=1500, bias=True)
            (dropout): Dropout(p=0.0, inplace=False)
          )
          (LayerNorm): LayerNorm((1500,), eps=1e-12, elementwise_affine=True)
        )
      )
      (emb_layer_norm_after): LayerNorm((1500,), eps=1e-12, elementwise_affine=True)
    )
    (contact_head): EsmContactPredictionHead(
      (regression): Linear(in_features=800, out_features=1, bias=True)
      (activation): Sigmoid()
    )
  )
  (lm_head): EsmLMHead(
    (dense): Linear(in_features=1500, out_features=1500, bias=True)
    (layer_norm): LayerNorm((1500,), eps=1e-12, elementwise_affine=True)
    (decoder): Linear(in_features=1500, out_features=4105, bias=False)
  )
)
Extracting embeddings:   0%|          | 0/256 [00:00<?, ?it/s]Extracting embeddings:   0%|          | 1/256 [00:03<16:16,  3.83s/it]Extracting embeddings:   1%|          | 2/256 [00:07<16:01,  3.79s/it]Extracting embeddings:   1%|1         | 3/256 [00:11<15:54,  3.77s/it]Extracting embeddings:   2%|1         | 4/256 [00:15<15:48,  3.77s/i
…
