…
l.bin:  98%|#########8| 3.90G/3.97G [00:33<00:00, 659MB/s]pytorch_model.bin: 100%|##########| 3.97G/3.97G [00:33<00:00, 118MB/s]
model.safetensors:   0%|          | 0.00/3.97G [00:00<?, ?B/s]model.safetensors:   0%|          | 777k/3.97G [00:01<1:52:17, 588kB/s]model.safetensors:   0%|          | 2.31M/3.97G [00:02<59:34, 1.11MB/s]model.safetensors:   0%|          | 4.66M/3.97G [00:03<37:05, 1.78MB/s]  Hidden size: 1500
  Parameters: 991,261,206 (991.3M)
  Device: cuda, Dtype: torch.float32
  Model:
EsmForMaskedLM(
  (esm): EsmModel(
    (embeddings): EsmEmbeddings(
      (word_embeddings): Embedding(4105, 1500, padding_idx=1)
      (dropout): Dropout(p=0.0, inplace=False)
      (position_embeddings): Embedding(1026, 1500, padding_idx=1)
    )
    (encoder): EsmEncoder(
      (layer): ModuleList(
        (0-39): 40 x EsmLayer(
          (attention): EsmAttention(
            (self): EsmSelfAttention(
              (query): Linear(in_features=1500, out_features=1500, bias=True)
              (key): Linear(in_features=1500, out_features=1500, bias=True)
              (value): Linear(in_features=1500, out_features=1500, bias=True)
              (dropout): Dropout(p=0.0, inplace=False)
            )
            (output): EsmSelfOutput(
              (dense): Linear(in_features=1500, out_features=1500, bias=True)
              (dropout): Dropout(p=0.0, inplace=False)
            )
            (LayerNorm): LayerNorm((1500,), eps=1e-12, elementwise_affine=True)
          )
          (intermediate): EsmIntermediate(
            (dense): Linear(in_features=1500, out_features=5120, bias=True)
          )
          (output): EsmOutput(
            (dense): Linear(in_features=5120, out_features=1500, bias=True)
            (dropout): Dropout(p=0.0, inplace=False)
          )
          (LayerNorm): LayerNorm((1500,), eps=1e-12, elementwise_affine=True)
        )
      )
      (emb_layer_norm_after): LayerNorm((1500,), eps=1e-12, elementwise_affine=True)
    )
    (contact_head): EsmContactPredictionHead(
      (regression): Linear(in_features=800, out_features=1, bias=True)
      (activation): Sigmoid()
    )
  )
  (lm_head): EsmLMHead(
    (dense): Linear(in_features=1500, out_features=1500, bias=True)
    (layer_norm): LayerNorm((1500,), eps=1e-12, elementwise_affine=True)
    (decoder): Linear(in_features=1500, out_features=4105, bias=False)
  )
)

Extracting embeddings:   0%|          | 0/2048 [00:00<?, ?it/s][A
Extracting embeddings:   0%|          | 1/2048 [00:01<36:12,  1.06s/it][A
Extracting embeddings:   0%|          | 2/2048 [00:01<24:32,  1.39it/s][A
Extracting embeddings:   0%|          | 3/2048 [00:02<20:49,  1.64it/s][A
Extracting embeddings:   0%|          | 4/2048 [00:02<19:04,  1.79it/s][A
…
