…
Preparing sequences (cropping to 512 bp and filtering empty)...
  Records before filtering: 107,865
  Records after filtering: 107,865
  Empty sequences filtered: 0
Sampling 98304 records...
Extracting records...
  Unique species: 3
Loading AutoModel from songlab/gpn-brassicales revision=eb9c35d0d18571abe84390d22e74f2b21d319ce3 with dtype=torch.float32...
  Hidden size: 512
  Parameters: 65,612,800 (65.6M)
  Device: cuda, Dtype: torch.float32
  Model:
ConvNetModel(
  (embedding): GPNEmbedding()
  (encoder): Sequential(
    (0): ConvLayer(
      (conv): Sequential(
        (0): TransposeLayer()
        (1): Conv1d(512, 512, kernel_size=(9,), stride=(1,), padding=same)
        (2): TransposeLayer()
        (3): GELU(approximate='none')
        (4): LayerNorm((512,), eps=1e-05, elementwise_affine=True)
      )
      (ffn): Sequential(
        (0): Linear(in_features=512, out_features=512, bias=True)
        (1): GELU(approximate='none')
        (2): LayerNorm((512,), eps=1e-05, elementwise_affine=True)
      )
    )
    (1): ConvLayer(
      (conv): Sequential(
        (0): TransposeLayer()
        (1): Conv1d(512, 512, kernel_size=(9,), stride=(1,), padding=same, dilation=(2,))
        (2): TransposeLayer()
        (3): GELU(approximate='none')
        (4): LayerNorm((512,), eps=1e-05, elementwise_affine=True)
      )
      (ffn): Sequential(
        (0): Linear(in_features=512, out_features=512, bias=True)
        (1): GELU(approximate='none')
        (2): LayerNorm((512,), eps=1e-05, elementwise_affine=True)
      )
    )
    (2): ConvLayer(
      (conv): Sequential(
        (0): TransposeLayer()
        (1): Conv1d(512, 512, kernel_size=(9,), stride=(1,), padding=same, dilation=(4,))
        (2): TransposeLayer()
        (3): GELU(approximate='none')
        (4): LayerNorm((512,), eps=1e-05, elementwise_affine=True)
      )
      (ffn): Sequential(
        (0): Linear(in_features=512, out_features=512, bias=True)
        (1): GELU(approximate='none')
        (2): LayerNorm((512,), eps=1e-05, elementwise_affine=True)
      )
    )
    (3): ConvLayer(
      (conv): Sequential(
        (0): TransposeLayer()
        (1): Conv1d(512, 512, kernel_size=(9,), stride=(1,), padding=same, dilation=(8,))
        (2): TransposeLayer()
        (3): GELU(approximate='none')
        (4): LayerNorm((512,), eps=1e-05, elementwise_affine=True)
      )
      (ffn): Sequential(
        (0): Linear(in_features=512, out_features=512, bias=True)
        (1): GELU(approximate='none')
        (2): LayerNorm((512,), eps=1e-05, elementwise_affine=True)
      )
    )
    (4): ConvLayer(
      (conv): Sequential(
        (0): TransposeLayer()
        (1): Conv1d(512, 512, kernel_size=(9,), stride=(1,), padding=same, dilation=(16,))
        (2): TransposeLayer()
        (3): GELU(approximate='none')
        (4): LayerNorm((512,), eps=1e-05, elementwise_affine=True)
      )
      (ffn): Sequential(
        (0): Linear(in_features=512, out_features=512, bias=True)
        (1): GELU(approximate='none')
        (2): LayerNorm((512,), eps=1e-05, elementwise_affine=True)
      )
    )
    (5): ConvLayer(
      (conv): Sequential(
        (0): TransposeLayer()
        (1): Conv1d(512, 512, kernel_size=(9,), stride=(1,), padding=same, dilation=(32,))
        (2): TransposeLayer()
        (3): GELU(approximate='none')
        (4): LayerNorm((512,), eps=1e-05, elementwise_affine=True)
      )
      (ffn): Sequential(
        (0): Linear(in_features=512, out_features=512, bias=True)
        (1): GELU(approximate='none')
        (2): LayerNorm((512,), eps=1e-05, elementwise_affine=True)
      )
    )
    (6): ConvLayer(
      (conv): Sequential(
        (0): TransposeLayer()
        (1): Conv1d(512, 512, kernel_size=(9,), stride=(1,), padding=same)
        (2): TransposeLayer()
        (3): GELU(approximate='none')
        (4): LayerNorm((512,), eps=1e-05, elementwise_affine=True)
      )
      (ffn): Sequential(
        (0): Linear(in_features=512, out_features=512, bias=True)
        (1): GELU(approximate='none')
        (2): LayerNorm((512,), eps=1e-05, elementwise_affine=True)
      )
    )
    (7): ConvLayer(
      (conv): Sequential(
        (0): TransposeLayer()
        (1): Conv1d(512, 512, kernel_size=(9,), stride=(1,), padding=same, dilation=(2,))
        (2): TransposeLayer()
        (3): GELU(approximate='none')
        (4): LayerNorm((512,), eps=1e-05, elementwise_affine=True)
      )
      (ffn): Sequential(
        (0): Linear(in_features=512, out_features=512, bias=True)
        (1): GELU(approximate='none')
        (2): LayerNorm((512,), eps=1e-05, elementwise_affine=True)
      )
    )
    (8): ConvLayer(
      (conv): Sequential(
        (0): TransposeLayer()
        (1): Conv1d(512, 512, kernel_size=(9,), stride=(1,), padding=same, dilation=(4,))
        (2): TransposeLayer()
        (3): GELU(approximate='none')
        (4): LayerNorm((512,), eps=1e-05, elementwise_affine=True)
      )
      (ffn): Sequential(
        (0): Linear(in_features=512, out_features=512, bias=True)
        (1): GELU(approximate='none')
        (2): LayerNorm((512,), eps=1e-05, elementwise_affine=True)
      )
    )
    (9): ConvLayer(
      (conv): Sequential(
        (0): TransposeLayer()
        (1): Conv1d(512, 512, kernel_size=(9,), stride=(1,), padding=same, dilation=(8,))
        (2): TransposeLayer()
        (3): GELU(approximate='none')
        (4): LayerNorm((512,), eps=1e-05, elementwise_affine=True)
      )
      (ffn): Sequential(
        (0): Linear(in_features=512, out_features=512, bias=True)
        (1): GELU(approximate='none')
        (2): LayerNorm((512,), eps=1e-05, elementwise_affine=True)
      )
    )
    (10): ConvLayer(
      (conv): Sequential(
        (0): TransposeLayer()
        (1): Conv1d(512, 512, kernel_size=(9,), stride=(1,), padding=same, dilation=(16,))
        (2): TransposeLayer()
        (3): GELU(approximate='none')
        (4): LayerNorm((512,), eps=1e-05, elementwise_affine=True)
      )
      (ffn): Sequential(
        (0): Linear(in_features=512, out_features=512, bias=True)
        (1): GELU(approximate='none')
        (2): LayerNorm((512,), eps=1e-05, elementwise_affine=True)
      )
    )
    (11): ConvLayer(
      (conv): Sequential(
        (0): TransposeLayer()
        (1): Conv1d(512, 512, kernel_size=(9,), stride=(1,), padding=same, dilation=(32,))
        (2): TransposeLayer()
        (3): GELU(approximate='none')
        (4): LayerNorm((512,), eps=1e-05, elementwise_affine=True)
      )
      (ffn): Sequential(
        (0): Linear(in_features=512, out_features=512, bias=True)
        (1): GELU(approximate='none')
        (2): LayerNorm((512,), eps=1e-05, elementwise_affine=True)
      )
    )
    (12): ConvLayer(
      (conv): Sequential(
        (0): TransposeLayer()
        (1): Conv1d(512, 512, kernel_size=(9,), stride=(1,), padding=same)
        (2): TransposeLayer()
        (3): GELU(approximate='none')
        (4): LayerNorm((512,), eps=1e-05, elementwise_affine=True)
      )
      (ffn): Sequential(
        (0): Linear(in_features=512, out_features=512, bias=True)
        (1): GELU(approximate='none')
        (2): LayerNorm((512,), eps=1e-05, elementwise_affine=True)
      )
    )
    (13): ConvLayer(
      (conv): Sequential(
        (0): TransposeLayer()
        (1): Conv1d(512, 512, kernel_size=(9,), stride=(1,), padding=same, dilation=(2,))
        (2): TransposeLayer()
        (3): GELU(approximate='none')
        (4): LayerNorm((512,), eps=1e-05, elementwise_affine=True)
      )
      (ffn): Sequential(
        (0): Linear(in_features=512, out_features=512, bias=True)
        (1): GELU(approximate='none')
        (2): LayerNorm((512,), eps=1e-05, elementwise_affine=True)
      )
    )
    (14): ConvLayer(
      (conv): Sequential(
        (0): TransposeLayer()
        (1): Conv1d(512, 512, kernel_size=(9,), stride=(1,), padding=same, dilation=(4,))
        (2): TransposeLayer()
        (3): GELU(approximate='none')
        (4): LayerNorm((512,), eps=1e-05, elementwise_affine=True)
      )
      (ffn): Sequential(
        (0): Linear(in_features=512, out_features=512, bias=True)
        (1): GELU(approximate='none')
        (2): LayerNorm((512,), eps=1e-05, elementwise_affine=True)
      )
    )
    (15): ConvLayer(
      (conv): Sequential(
        (0): TransposeLayer()
        (1): Conv1d(512, 512, kernel_size=(9,), stride=(1,), padding=same, dilation=(8,))
        (2): TransposeLayer()
        (3): GELU(approximate='none')
        (4): LayerNorm((512,), eps=1e-05, elementwise_affine=True)
      )
      (ffn): Sequential(
        (0): Linear(in_features=512, out_features=512, bias=True)
        (1): GELU(approximate='none')
        (2): LayerNorm((512,), eps=1e-05, elementwise_affine=True)
      )
    )
    (16): ConvLayer(
      (conv): Sequential(
        (0): TransposeLayer()
        (1): Conv1d(512, 512, kernel_size=(9,), stride=(1,), padding=same, dilation=(16,))
        (2): TransposeLayer()
        (3): GELU(approximate='none')
        (4): LayerNorm((512,), eps=1e-05, elementwise_affine=True)
      )
      (ffn): Sequential(
        (0): Linear(in_features=512, out_features=512, bias=True)
        (1): GELU(approximate='none')
        (2): LayerNorm((512,), eps=1e-05, elementwise_affine=True)
      )
    )
    (17): ConvLayer(
      (conv): Sequential(
        (0): TransposeLayer()
        (1): Conv1d(512, 512, kernel_size=(9,), stride=(1,), padding=same, dilation=(32,))
        (2): TransposeLayer()
        (3): GELU(approximate='none')
        (4): LayerNorm((512,), eps=1e-05, elementwise_affine=True)
      )
      (ffn): Sequential(
        (0): Linear(in_features=512, out_features=512, bias=True)
        (1): GELU(approximate='none')
        (2): LayerNorm((512,), eps=1e-05, elementwise_affine=True)
      )
    )
    (18): ConvLayer(
      (conv): Sequential(
        (0): TransposeLayer()
        (1): Conv1d(512, 512, kernel_size=(9,), stride=(1,), padding=same)
        (2): TransposeLayer()
        (3): GELU(approximate='none')
        (4): LayerNorm((512,), eps=1e-05, elementwise_affine=True)
      )
      (ffn): Sequential(
        (0): Linear(in_features=512, out_features=512, bias=True)
        (1): GELU(approximate='none')
        (2): LayerNorm((512,), eps=1e-05, elementwise_affine=True)
      )
    )
    (19): ConvLayer(
      (conv): Sequential(
        (0): TransposeLayer()
        (1): Conv1d(512, 512, kernel_size=(9,), stride=(1,), padding=same, dilation=(2,))
        (2): TransposeLayer()
        (3): GELU(approximate='none')
        (4): LayerNorm((512,), eps=1e-05, elementwise_affine=True)
      )
      (ffn): Sequential(
        (0): Linear(in_features=512, out_features=512, bias=True)
        (1): GELU(approximate='none')
        (2): LayerNorm((512,), eps=1e-05, elementwise_affine=True)
      )
    )
    (20): ConvLayer(
      (conv): Sequential(
        (0): TransposeLayer()
        (1): Conv1d(512, 512, kernel_size=(9,), stride=(1,), padding=same, dilation=(4,))
        (2): TransposeLayer()
        (3): GELU(approximate='none')
        (4): LayerNorm((512,), eps=1e-05, elementwise_affine=True)
      )
      (ffn): Sequential(
        (0): Linear(in_features=512, out_features=512, bias=True)
        (1): GELU(approximate='none')
        (2): LayerNorm((512,), eps=1e-05, elementwise_affine=True)
      )
    )
    (21): ConvLayer(
      (conv): Sequential(
        (0): TransposeLayer()
        (1): Conv1d(512, 512, kernel_size=(9,), stride=(1,), padding=same, dilation=(8,))
        (2): TransposeLayer()
        (3): GELU(approximate='none')
        (4): LayerNorm((512,), eps=1e-05, elementwise_affine=True)
      )
      (ffn): Sequential(
        (0): Linear(in_features=512, out_features=512, bias=True)
        (1): GELU(approximate='none')
        (2): LayerNorm((512,), eps=1e-05, elementwise_affine=True)
      )
    )
    (22): ConvLayer(
      (conv): Sequential(
        (0): TransposeLayer()
        (1): Conv1d(512, 512, kernel_size=(9,), stride=(1,), padding=same, dilation=(16,))
        (2): TransposeLayer()
        (3): GELU(approximate='none')
        (4): LayerNorm((512,), eps=1e-05, elementwise_affine=True)
      )
      (ffn): Sequential(
        (0): Linear(in_features=512, out_features=512, bias=True)
        (1): GELU(approximate='none')
        (2): LayerNorm((512,), eps=1e-05, elementwise_affine=True)
      )
    )
    (23): ConvLayer(
      (conv): Sequential(
        (0): TransposeLayer()
        (1): Conv1d(512, 512, kernel_size=(9,), stride=(1,), padding=same, dilation=(32,))
        (2): TransposeLayer()
        (3): GELU(approximate='none')
        (4): LayerNorm((512,), eps=1e-05, elementwise_affine=True)
      )
      (ffn): Sequential(
        (0): Linear(in_features=512, out_features=512, bias=True)
        (1): GELU(approximate='none')
        (2): LayerNorm((512,), eps=1e-05, elementwise_affine=True)
      )
    )
    (24): ConvLayer(
      (conv): Sequential(
        (0): TransposeLayer()
        (1): Conv1d(512, 512, kernel_size=(9,), stride=(1,), padding=same)
        (2): TransposeLayer()
        (3): GELU(approximate='none')
        (4): LayerNorm((512,), eps=1e-05, elementwise_affine=True)
      )
      (ffn): Sequential(
        (0): Linear(in_features=512, out_features=512, bias=True)
        (1): GELU(approximate='none')
        (2): LayerNorm((512,), eps=1e-05, elementwise_affine=True)
      )
    )
  )
)
Extracting embeddings:   0%|          | 0/24 [00:00<?, ?it/s]Extracting embeddings:   4%|4         | 1/24 [00:03<01:15,  3.26s/it]Extracting embeddings:   8%|8         | 2/24 [00:06<01:08,  3.12s/it]Extracting embeddings:  12%|#2        | 3/24 [00:09<01:04,  3.08s/it]Extracting embeddings:  17%|#6        | 4/24 [00:12<01:02,  3.1
…
